Model: "sequential_17"
┏━━━━━━━━━━━━━━━━━━━━━━━━━━━━━━━━━┳━━━━━━━━━━━━━━━━━━━━━━━━┳━━━━━━━━━━━━━━━┓
┃ Layer (type)                    ┃ Output Shape           ┃       Param # ┃
┡━━━━━━━━━━━━━━━━━━━━━━━━━━━━━━━━━╇━━━━━━━━━━━━━━━━━━━━━━━━╇━━━━━━━━━━━━━━━┩
│ lstm_47 (LSTM)                  │ (None, 30, 64)         │        22,528 │
├─────────────────────────────────┼────────────────────────┼───────────────┤
│ lstm_48 (LSTM)                  │ (None, 30, 32)         │        12,416 │
├─────────────────────────────────┼────────────────────────┼───────────────┤
│ lstm_49 (LSTM)                  │ (None, 30, 32)         │         8,320 │
├─────────────────────────────────┼────────────────────────┼───────────────┤
│ lstm_50 (LSTM)                  │ (None, 30, 16)         │         3,136 │
├─────────────────────────────────┼────────────────────────┼───────────────┤
│ dense_17 (Dense)                │ (None, 30, 1)          │            17 │
└─────────────────────────────────┴────────────────────────┴───────────────┘
 Total params: 46,417 (181.32 KB)
 Trainable params: 46,417 (181.32 KB)
 Non-trainable params: 0 (0.00 B)
